save_SAKT_300_epochs_0_916_AUC.pth (torch, 375663 bytes, 17 tensors)

weight f4 [329, 64]
000000 00 00 00 00 00 00 00 00 00 00 00 00 00 00 00 00
       0.0 0.0 0.0 0.0
000010 00 00 00 00 00 00 00 00 00 00 00 00 00 00 00 00
       0.0 0.0 0.0 0.0
000020 00 00 00 00 00 00 00 00 00 00 00 00 00 00 00 00
       0.0 0.0 0.0 0.0
000030 00 00 00 00 00 00 00 00 00 00 00 00 00 00 00 00
       0.0 0.0 0.0 0.0
000040 00 00 00 00 00 00 00 00 00 00 00 00 00 00 00 00
       0.0 0.0 0.0 0.0
000050 00 00 00 00 00 00 00 00 00 00 00 00 00 00 00 00
       0.0 0.0 0.0 0.0
000060 00 00 00 00 00 00 00 00 00 00 00 00 00 00 00 00
       0.0 0.0 0.0 0.0
000070 00 00 00 00 00 00 00 00 00 00 00 00 00 00 00 00
       0.0 0.0 0.0 0.0
000080 00 00 00 00 00 00 00 00 00 00 00 00 00 00 00 00
       0.0 0.0 0.0 0.0
000090 00 00 00 00 00 00 00 00 00 00 00 00 00 00 00 00
       0.0 0.0 0.0 0.0
0000a0 00 00 00 00 00 00 00 00 00 00 00 00 00 00 00 00
       0.0 0.0 0.0 0.0
0000b0 00 00 00 00 00 00 00 00 00 00 00 00 00 00 00 00
       0.0 0.0 0.0 0.0
0000c0 00 00 00 00 00 00 00 00 00 00 00 00 00 00 00 00
       0.0 0.0 0.0 0.0
0000d0 00 00 00 00 00 00 00 00 00 00 00 00 00 00 00 00
       0.0 0.0 0.0 0.0
0000e0 00 00 00 00 00 00 00 00 00 00 00 00 00 00 00 00
       0.0 0.0 0.0 0.0
0000f0 00 00 00 00 00 00 00 00 00 00 00 00 00 00 00 00
       0.0 0.0 0.0 0.0
000100 25 c7 c6 bf 66 2c b8 bf 4a 76 90 3f 34 0c 01 bf
       -1.5529524 -1.4388549 1.1286099 -0.50409245
000110 73 4b 61 3f fb f0 e6 3f c2 78 02 3f de cc 2a 3f
       0.8800575 1.8042291 0.5096551 0.6671885
000120 63 6d 60 bd 9b 86 03 be d6 b7 e6 3e 81 41 d4 3e
       -0.05479182 -0.12844317 0.4506213 0.41456226
000130 0f 12 16 3f 9b b4 c5 3e c8 94 2e 3e db 40 85 3f
       0.58621305 0.38614354 0.17048943 1.0410417
000140 b1 bc dc bf d0 05 2d 3f f8 b1 9d be d5 7d de be
       -1.7245084 0.67586994 -0.30799842 -0.43455377
000150 d0 58 a1 3f 63 f0 61 3f 27 1c 90 3e 7d fa a2 be
       1.2605228 0.88257426 0.2814648 -0.31831732
000160 ce a5 f1 3d 38 c4 f9 3f ea 17 5f 3f c5 67 2b c0
       0.11799203 1.9513006 0.87145865 -2.6782086
000170 99 f2 22 3e 2f 73 6a bf c3 fc 7e 3f 4c 65 8c 3f
       0.15912856 -0.91582006 0.99604434 1.0968413
000180 7b 60 c2 3d 76 d5 e4 3f be 10 a8 bf 84 48 3a 40
       0.094910584 1.7877643 -1.3130109 2.910676
000190 7f 0b 12 40 3b fa 9c bf 1f 29 10 3f 27 61 05 be
       2.2819517 -1.2263864 0.56312746 -0.13025342
0001a0 c2 03 ae bf e1 fb 92 bd 25 af 50 bf 0d 4f 6c 3d
       -1.3594897 -0.07176948 -0.8151725 0.057692576
0001b0 5d 53 1c c0 4a 09 57 bf 6c d6 27 3e af c6 4c 3f
       -2.442588 -0.8399855 0.16390389 0.7999067
0001c0 53 a0 d2 3e 9d 50 56 bf 48 4c 6b be 33 e7 b5 be
       0.41137943 -0.83716756 -0.22978318 -0.35527954
0001d0 bd e6 ec 3d 23 9c 95 bf 0a 29 0d c0 e4 93 1c 3f
       0.11567447 -1.1688274 -2.2056298 0.61163163
0001e0 29 ec c6 3d 43 9f a9 3f 54 d6 81 3e 8c d0 e6 3f
       0.09713013 1.3251728 0.25358832 1.8032393
0001f0 06 12 ae bf e6 b9 1c bf f5 e5 c0 be c8 77 ec be
       -1.359925 -0.6122116 -0.37675443 -0.46185136
000200 a6 22 9c be 5d 4f 34 3f d0 cb 21 3f 9f bc 89 bc
       -0.30495185 0.704336 0.6320162 -0.016813574
000210 31 71 a4 bf a9 d5 26 c0 c9 b5 46 3e 25 1a 29 bf
       -1.2847043 -2.6067908 0.19405283 -0.6605552
000220 bf 92 9b 3f 8d c0 7a bf e0 b3 fd 3e 71 03 80 3f
       1.2154158 -0.9795006 0.49551296 1.000105
000230 61 44 8e be 64 9b 7e bf e4 5f f2 3e 02 7a 39 bf
       -0.27786544 -0.9945586 0.47338784 -0.72451794
000240 fc d2 5a bf 14 ef dc 3d 27 a8 9d 3f 03 95 18 3e
       -0.85478187 0.10787788 1.2316941 0.14900593
000250 7b 96 75 3f 32 2c 84 3a a5 44 91 3f 7d b9 10 3f
       0.9593274 0.0010083972 1.1349074 0.5653303
000260 e3 26 11 bf cf 62 d5 3e 22 ac 94 3f 87 2e ae 3d
       -0.5669996 0.41676947 1.1615031 0.08504968
000270 59 12 e3 3e 5f 6f 47 3f 87 53 49 be c0 f0 81 3e
       0.44349936 0.77904314 -0.1966077 0.2537899
000280 59 e8 a6 3f c7 67 e7 be a0 e6 a3 bf 77 41 9d 3f
       1.3039657 -0.45196363 -1.2804756 1.2285603
000290 4a 11 83 bf 1d 6a 11 3f 56 25 1a bf 41 6e 28 bf
       -1.0239651 0.5680254 -0.6021322 -0.65793234
0002a0 3f a8 45 3f 05 a1 c7 bf a7 30 27 40 2a 82 67 bf
       0.7720985 -1.5596014 2.6123445 -0.9043299
0002b0 ad 6e 09 3e 66 24 9c 3f 41 61 c9 bf 40 f4 96 3f
       0.13421126 1.2198608 -1.5732805 1.1793289
0002c0 b6 fe 18 3e 2f fb 91 be 1d c0 09 3f e8 6b 44 be
       0.14940915 -0.2851195 0.53808767 -0.19181788
0002d0 bd 3f 82 3f ce bc a1 bf 3f f2 cb 3e 0c eb 0f 3c
       1.0175701 -1.2635744 0.39833257 0.008784067
0002e0 48 3f 10 40 50 aa de 3f 1f e2 4e 40 cd fb 0d 40
       2.2538624 1.7395725 3.2325513 2.2184937
0002f0 4c b7 a5 3f 33 bf 4f bf 6c 31 3a 3f f6 95 c8 be
       1.2946563 -0.8115112 0.7273166 -0.3917691
000300 80 31 87 3f 45 0f b0 bc d8 64 67 3e 40 33 d2 bf
       1.0561981 -0.021491656 0.22597063 -1.642189
000310 25 b7 f6 be 71 a8 19 3e fc df d4 3c a5 92 d3 bd
       -0.48186603 0.15005662 0.02598571 -0.103307046
000320 a1 13 cd be 51 c3 05 3f e9 66 ae be ee eb cd bf
       -0.40054038 0.52251154 -0.3406289 -1.6087625
000330 9b d4 59 bd a0 a9 97 3f 36 75 ee 3e 2f 74 ac be
       -0.053181272 1.184864 0.465738 -0.3368239
000340 fd c6 cc 3f a9 65 ca bf f9 59 a0 3e b3 a2 92 bf
       1.5998226 -1.5812274 0.31318644 -1.1455902
000350 77 fd 1a ba 31 c2 0e 3e 95 21 3f bf 19 b6 84 be
       -0.0005912403 0.13941266 -0.7466062 -0.2592018
000360 cf 5f ac bc da d8 0c 40 e5 eb 03 be be f9 67 bf
       -0.021041779 2.2007356 -0.12882955 -0.9061545
000370 21 2a 90 3e 42 60 8f 3f 70 96 59 3e a1 ce f6 be
       0.28157142 1.120125 0.21248794 -0.4820452
000380 5c 4e 3b bf 51 6d ae 3e fe 5d ad be a1 1b ec be
       -0.7316644 0.34067777 -0.33860773 -0.4611483
000390 69 c9 c4 3f 4a 62 bc 3d be 9e 95 be 59 eb 80 bf
       1.5373966 0.09198435 -0.29222673 -1.0071822
0003a0 8c 0a fe bd 50 1d 14 3f 56 1a 9a 3f 43 50 2f be
       -0.124043554 0.5785723 1.2039287 -0.17120461
0003b0 27 3e 8b 3f e5 3f bd 3e 71 29 e0 3e 7c 19 a0 3f
       1.0878342 0.3696281 0.43781617 1.2507777
0003c0 5f 7d e9 bd be 56 1a bf ed ff c9 be 15 f6 98 3f
       -0.11400866 -0.6028861 -0.39453068 1.1950098
0003d0 2b 67 af 3f 6e b6 a4 be 40 16 bb be 1b 32 3c be
       1.3703359 -0.32170433 -0.36540413 -0.18378489
0003e0 ce 1f b0 3f f4 f9 3b bf 2c 30 6d bf bb b8 69 3f
       1.3759706 -0.73428273 -0.9265163 0.912975
0003f0 df 89 82 3a 7a 68 b3 3f a1 4a 8a bf 65 d0 9c bf
       0.0009959302 1.4016259 -1.0804025 -1.2251097

weight f4 [165, 64]
000000 00 00 00 00 00 00 00 00 00 00 00 00 00 00 00 00
       0.0 0.0 0.0 0.0
000010 00 00 00 00 00 00 00 00 00 00 00 00 00 00 00 00
       0.0 0.0 0.0 0.0
000020 00 00 00 00 00 00 00 00 00 00 00 00 00 00 00 00
       0.0 0.0 0.0 0.0
000030 00 00 00 00 00 00 00 00 00 00 00 00 00 00 00 00
       0.0 0.0 0.0 0.0
000040 00 00 00 00 00 00 00 00 00 00 00 00 00 00 00 00
       0.0 0.0 0.0 0.0
000050 00 00 00 00 00 00 00 00 00 00 00 00 00 00 00 00
       0.0 0.0 0.0 0.0
000060 00 00 00 00 00 00 00 00 00 00 00 00 00 00 00 00
       0.0 0.0 0.0 0.0
000070 00 00 00 00 00 00 00 00 00 00 00 00 00 00 00 00
       0.0 0.0 0.0 0.0
000080 00 00 00 00 00 00 00 00 00 00 00 00 00 00 00 00
       0.0 0.0 0.0 0.0
000090 00 00 00 00 00 00 00 00 00 00 00 00 00 00 00 00
       0.0 0.0 0.0 0.0
0000a0 00 00 00 00 00 00 00 00 00 00 00 00 00 00 00 00
       0.0 0.0 0.0 0.0
0000b0 00 00 00 00 00 00 00 00 00 00 00 00 00 00 00 00
       0.0 0.0 0.0 0.0
0000c0 00 00 00 00 00 00 00 00 00 00 00 00 00 00 00 00
       0.0 0.0 0.0 0.0
0000d0 00 00 00 00 00 00 00 00 00 00 00 00 00 00 00 00
       0.0 0.0 0.0 0.0
0000e0 00 00 00 00 00 00 00 00 00 00 00 00 00 00 00 00
       0.0 0.0 0.0 0.0
0000f0 00 00 00 00 00 00 00 00 00 00 00 00 00 00 00 00
       0.0 0.0 0.0 0.0
000100 a3 e4 a1 3e 6b 33 66 3f c5 ca ca bf d0 2b 12 bf
       0.31619748 0.8992221 -1.584313 -0.570981
000110 a8 72 82 bf eb c3 36 c0 fb 47 b8 bf 65 6b 1b 3e
       -1.019124 -2.855708 -1.4396967 0.15177687
000120 d5 af 65 bf a8 56 eb 3e 18 5a 68 3f 49 d7 7d 3f
       -0.89721423 0.4596455 0.9076247 0.99156624
000130 d3 fb 51 bf b1 95 ff bf 40 fd 01 3f 40 ec 9c be
       -0.8202488 -1.9967557 0.50777054 -0.30648994
000140 13 b7 a3 be 94 d8 19 bf 2d 4f 6c bf 4e c2 04 3d
       -0.31975612 -0.60096097 -0.9230831 0.032411866
000150 c5 2c 91 bf 2d 28 1e bf 4b a9 a9 bf bd fa 0e 40
       -1.1341788 -0.61780053 -1.3254789 2.2340539
000160 5d 10 d1 bf 60 15 69 bf ff 12 a1 3f 04 66 56 3f
       -1.6333119 -0.9104824 1.2583922 0.83749413
000170 11 3b 29 40 40 d6 bc 3e 87 ed 3c bf df 82 b1 3f
       2.6442301 0.3688221 -0.7379994 1.3868064
000180 fb 8b 2a 3e fb eb 7c 3f 3e 8e 9b be 95 57 c8 be
       0.16654961 0.9879758 -0.3038196 -0.3912932
000190 a8 6c c5 bf ff aa 7b 3f 1f 91 d9 3e a0 c6 df 3d
       -1.5423784 0.98307794 0.4249353 0.109265566
0001a0 b3 94 d6 3e e6 fd 02 3f 44 55 11 3e 35 2c af bf
       0.41910324 0.5116867 0.14192683 -1.3685366
0001b0 03 88 da 3f 86 a4 42 3f b0 16 c4 3e 3a 6a 79 3f
       1.7072757 0.7603229 0.3829856 0.97427714
0001c0 13 44 23 bf 4a d2 7b 3b 8f ef 2f 3f b0 2d 63 be
       -0.6377575 0.0038424903 0.6872491 -0.22185397
0001d0 2d e6 c0 3e 10 fd 0f bf 4a 42 1e be 2f f2 11 bf
       0.3767561 -0.5624552 -0.15454975 -0.5701017
0001e0 df ac bc 3e a7 51 f0 3e 79 42 f1 3f d8 90 28 3e
       0.3685064 0.46937296 1.8848411 0.16461504
0001f0 f6 40 4f 3f 34 5b 9d 3f 71 aa 0d 3f e1 8f 07 bf
       0.809585 1.2293458 0.553382 -0.52953917
000200 03 ee 26 3f 52 50 b8 bf 42 90 0e bf 19 de 80 3e
       0.6520693 -1.4399512 -0.5568887 0.25169447
000210 26 6b 01 c0 10 20 2a 3f c7 6b 1e 3e f0 9e 1c bf
       -2.0221648 0.66455173 0.15470801 -0.6118002
000220 8b 87 81 bf 18 a1 12 c0 6d 61 ee 3e a5 df 8c bf
       -1.011949 -2.2910824 0.46558705 -1.1005751
000230 86 56 e6 3f e2 86 11 bf 39 d7 b9 be 04 49 7b bf
       1.7995155 -0.5684644 -0.36297014 -0.9815829
000240 1a d0 01 bf 5b 26 db bd 6b 6b 8e 3e 5c 09 ba 3f
       -0.5070816 -0.10700675 0.27816328 1.4534106
000250 3a a7 82 be b6 b8 84 3f c5 7d 76 be e9 1a 07 3f
       -0.2551821 1.0368869 -0.24071415 0.52775437
000260 53 7b 28 c0 56 ee 1e 3f f4 b3 88 bf da d6 8e 3f
       -2.632527 0.6208242 -1.0679917 1.1159317
000270 fc c4 9b 3f 77 ff 7a be c0 89 c3 3e b0 aa 57 bf
       1.216949 -0.24511515 0.38191032 -0.84244823
000280 c3 37 9d bf ef a1 d4 3e 1a d6 90 3f cb 06 e0 bf
       -1.2282642 0.41529796 1.1315339 -1.7502073
000290 98 45 10 c0 45 1e 00 3d 1e cb c2 3f 5a be 9b 3f
       -2.2542477 0.031278867 1.5218236 1.2167466
0002a0 10 4d cc 3f 70 86 25 3f 52 95 6e 3e e4 59 71 bf
       1.5961018 0.6465826 0.23299149 -0.9427779
0002b0 fb 9c c8 3d e8 7d 65 bf e4 9e 90 3f d0 c9 43 3f
       0.09795567 -0.8964524 1.129849 0.76479816
0002c0 f8 59 45 bf 18 94 24 bf b2 13 52 bf 0e bd c4 3f
       -0.77090406 -0.64288473 -0.820613 1.5370195
0002d0 d2 32 85 bf 6b 9c 05 40 35 b1 b9 bf 62 d2 55 3d
       -1.0406134 2.087672 -1.4507204 0.05220259
0002e0 96 b5 97 bf c8 59 e5 3f e8 f3 14 40 da ab 4f 3f
       -1.1852291 1.7918024 2.3273869 0.811216
0002f0 10 ac 9a 3f df 9e 27 c0 16 a3 1b bf ad 17 4f 3e
       1.2083759 -2.6190717 -0.60795724 0.20223875
000300 67 a0 f9 bf 82 91 08 3f 3e ff b4 3f 2d be 21 3f
       -1.9502076 0.5334703 1.4140394 0.6318081
000310 81 df 98 bc 78 05 a2 bf 16 69 4b 3e 35 8f 1b 40
       -0.018661262 -1.2657919 0.19864306 2.4306157
000320 1a 25 0b bf 8b 6b 73 bf 36 8b 63 bf de a4 54 3f
       -0.5435349 -0.9508597 -0.88884294 0.8306407
000330 5a e0 91 3d 05 d7 9a bf f1 60 81 3b 94 82 6d 3f
       0.0712287 -1.2096869 0.003948324 0.9277737
000340 ff d0 c7 be 32 60 8a bf d5 03 d9 3e 35 6d eb bf
       -0.3902664 -1.0810606 0.42385736 -1.8392702
000350 e0 1f 04 40 8d 28 ed 3f 3c 76 99 3f 91 e4 d9 bf
       2.0644455 1.8528 1.1989207 -1.7022878
000360 38 02 94 bf aa 5f 02 be 84 76 37 bf e7 7e 3a 3f
       -1.1563177 -0.12731805 -0.71665215 0.7284989
000370 c7 48 f9 bf b0 e5 e0 bd 46 74 a3 bf d8 dc ec be
       -1.9475335 -0.109813094 -1.2769859 -0.4626224
000380 76 5e 05 c0 26 5b 89 bf b0 a6 0f be 7c 9c f7 3e
       -2.0838904 -1.0730941 -0.1402843 0.48361576
000390 22 03 86 3f 00 81 7b 3d bd 6c cf bf 22 26 ea be
       1.0469706 0.06140232 -1.6205059 -0.45732218
0003a0 74 28 ef be fb 68 55 3f 41 2f fe bd b8 24 59 3d
       -0.4671055 0.8336331 -0.12411357 0.053013533
0003b0 80 4f c2 be 4d ce ea be b3 14 51 bf 0d 8d a1 3e
       -0.3795128 -0.4586052 -0.8167221 0.31552926
0003c0 2b 41 c1 be f0 bc ba 3e b3 5f ae bf a9 e4 ea bf
       -0.37745032 0.36472273 -1.3622955 -1.8351032
0003d0 a3 1c 26 3e 02 84 db 3f b3 be 8e 3f 33 cf ce 3f
       0.16221862 1.714966 1.1151947 1.6156982
0003e0 9c df 02 c0 9b 21 e2 be 86 7b 1a 3f 9e 4a 4d bf
       -2.044898 -0.44166264 0.6034473 -0.8019198
0003f0 41 71 c1 3d 06 29 8d bf bb 78 99 3f c9 27 83 3e
       0.094454296 -1.1028144 1.1989969 0.2561629

weight f4 [351, 64]
000000 00 00 00 00 00 00 00 00 00 00 00 00 00 00 00 00
       0.0 0.0 0.0 0.0
000010 00 00 00 00 00 00 00 00 00 00 00 00 00 00 00 00
       0.0 0.0 0.0 0.0
000020 00 00 00 00 00 00 00 00 00 00 00 00 00 00 00 00
       0.0 0.0 0.0 0.0
000030 00 00 00 00 00 00 00 00 00 00 00 00 00 00 00 00
       0.0 0.0 0.0 0.0
000040 00 00 00 00 00 00 00 00 00 00 00 00 00 00 00 00
       0.0 0.0 0.0 0.0
000050 00 00 00 00 00 00 00 00 00 00 00 00 00 00 00 00
       0.0 0.0 0.0 0.0
000060 00 00 00 00 00 00 00 00 00 00 00 00 00 00 00 00
       0.0 0.0 0.0 0.0
000070 00 00 00 00 00 00 00 00 00 00 00 00 00 00 00 00
       0.0 0.0 0.0 0.0
000080 00 00 00 00 00 00 00 00 00 00 00 00 00 00 00 00
       0.0 0.0 0.0 0.0
000090 00 00 00 00 00 00 00 00 00 00 00 00 00 00 00 00
       0.0 0.0 0.0 0.0
0000a0 00 00 00 00 00 00 00 00 00 00 00 00 00 00 00 00
       0.0 0.0 0.0 0.0
0000b0 00 00 00 00 00 00 00 00 00 00 00 00 00 00 00 00
       0.0 0.0 0.0 0.0
0000c0 00 00 00 00 00 00 00 00 00 00 00 00 00 00 00 00
       0.0 0.0 0.0 0.0
0000d0 00 00 00 00 00 00 00 00 00 00 00 00 00 00 00 00
       0.0 0.0 0.0 0.0
0000e0 00 00 00 00 00 00 00 00 00 00 00 00 00 00 00 00
       0.0 0.0 0.0 0.0
0000f0 00 00 00 00 00 00 00 00 00 00 00 00 00 00 00 00
       0.0 0.0 0.0 0.0
000100 47 ee ab bf 26 e7 79 3d 7b 24 0a bf 09 4d 77 3f
       -1.3432091 0.061011456 -0.53961915 0.9660192
000110 77 0e e7 be f5 e9 d6 3e 43 b9 70 3f 50 c7 22 40
       -0.45128223 0.4197537 0.94032687 2.543415
000120 35 2e 36 bd cc 3e 6a bf a5 0a 65 3e d4 b6 88 bf
       -0.04447766 -0.9150207 0.22367342 -1.0680795
000130 66 93 9f be 2b b9 20 bf 24 89 8c 3e db dc 09 bf
       -0.31167144 -0.62782544 0.2744838 -0.53852624
000140 7c a4 97 bd dd 09 29 be bf ef f1 be f9 65 34 3e
       -0.0740442 -0.16507669 -0.47253224 0.17617024
000150 be 51 05 3f bc 90 67 3f fb 34 af bf 00 42 37 3f
       0.52077854 0.9045522 -1.3688043 0.71585083
000160 02 a3 63 3d c7 72 17 3f bd 09 9d bd 72 ce de bd
       0.05557538 0.5915951 -0.07667873 -0.1087922
000170 ef 74 71 3f ba 9e 69 bf ef ae 4a 3f a5 a8 60 bf
       0.9431905 -0.9125782 0.7917318 -0.8775733
000180 04 a1 05 be 90 86 55 3f 04 fe ee be d8 a3 07 c0
       -0.13049704 0.8340845 -0.46678174 -2.1193752
000190 77 c9 dd bd 0b 42 e2 bf 3f 64 02 40 71 10 f2 3c
       -0.10829442 -1.7676405 2.0373685 0.029548855
0001a0 7c a4 4c be c0 b0 61 3e d6 48 83 3f 3f 1a 50 3f
       -0.19984621 0.22040081 1.0256603 0.8129005
0001b0 ba 78 0d 40 88 bb 09 3f d2 3d 74 3f 17 fc 18 bf
       2.2104936 0.53801775 0.9540683 -0.5975966
0001c0 bd e7 98 3e 2e c0 48 bf db 72 12 bf 94 20 db bf
       0.29864302 -0.7841824 -0.57206506 -1.7119317
0001d0 9d 8f a4 be 43 9c ee bf a3 bd d5 3e 37 3d 79 3f
       -0.32140818 -1.8641437 0.41746244 0.9735903
0001e0 1c 6d 2d bf 89 2d 30 3f 1e 48 12 bf dc 7d 48 3f
       -0.6774461 0.6881948 -0.5714129 0.78317046
0001f0 27 8b 20 40 f4 b0 47 3f 5a 54 02 bf e5 ea d3 3f
       2.5084932 0.78004384 -0.5090996 1.6556059
000200 a0 72 c1 3f 67 f2 cb 3f 09 cc e3 3e b8 ad c4 bf
       1.5113106 1.593335 0.44491604 -1.5365515
000210 53 b4 28 bf 46 db 61 3f c7 2e 8b 3f 38 1e 9a 3f
       -0.6590015 0.8822521 1.087365 1.2040472
000220 d0 e5 a0 bd 8d 21 1d be 9c 7b 12 3f 86 dc 8f 3d
       -0.07856333 -0.1534483 0.5721986 0.070244834
000230 17 88 b8 3e 52 a5 9f bf 53 44 3f 3f e3 7b cc bf
       0.36041328 -1.2472327 0.7471363 -1.5975307
000240 7f 9c 0d 40 24 35 ff 3e 09 61 4d 3e b1 a3 d7 3d
       2.2126768 0.4984523 0.20056547 0.105292685
000250 48 5d 8b 3e d5 01 e7 bd 41 f2 35 bf 72 34 16 bf
       0.27219605 -0.11279646 -0.71072775 -0.58673775
000260 d8 1c 87 3e ad a1 50 3f a4 06 e2 bd 56 3a 95 bf
       0.26389194 0.814967 -0.11036423 -1.1658428
000270 6a 5e 6a 3f de 55 d2 3f 67 b4 d4 3e 0e cd 42 3f
       0.91550314 1.6432455 0.41543886 0.7609414
000280 74 3b 0d be 73 c2 53 3f e3 db 33 3e 16 61 1c bf
       -0.13792211 0.8271858 0.17564349 -0.6108564
000290 2d 5c e9 3e f0 b3 07 be 71 a0 0f 3f d1 17 33 bf
       0.45578137 -0.13252234 0.5610419 -0.69958216
0002a0 6f 25 96 3f f4 d0 c4 3e e4 df 2e 3f 4a 2d ab 3f
       1.1730174 0.3844067 0.6831038 1.3373196
0002b0 60 f5 64 bf a5 70 50 bd df 14 34 3f a3 f5 83 3f
       -0.8943691 -0.050888676 0.70344347 1.0309337
0002c0 1e 32 43 3e 5e 0c e4 bf 68 46 8a be 81 40 36 be
       0.19062087 -1.7816274 -0.2700684 -0.17798044
0002d0 f3 7e a7 bf 9b 88 8c 3f 4e 14 90 3f a9 11 0a 40
       -1.3085617 1.0979189 1.1256196 2.157328
0002e0 7a c4 0b 3f d4 4b 0e 40 12 26 18 3f 3f ab 30 be
       0.54596674 2.2233782 0.5943309 -0.17252825
0002f0 58 15 49 3f 95 9d 02 40 ab 29 b6 3e a1 60 e6 be
       0.7854819 2.040868 0.35578665 -0.44995597
000300 c7 77 2e bf ee 13 f5 3e 9a b3 6a bf 54 43 06 c0
       -0.68151516 0.47866768 -0.916803 -2.0978594
000310 cd 0a f8 3f 91 8e 3f bf b9 9e 9b bf f6 5f c3 be
       1.9378296 -0.74826914 -1.2157813 -0.3815915
000320 7e 90 6f 3f c2 22 89 be 27 2e 91 3f 5f a8 a3 3e
       0.9357985 -0.2678433 1.134221 0.31964394
000330 78 03 88 3f 32 f7 20 bf 90 92 84 bf 8d fb 23 be
       1.0626059 -0.6287719 -1.0357227 -0.16013928
000340 88 0d 10 3e 6a 1d f3 3f ff 0e 99 3f 9a d3 91 3f
       0.14067662 1.8993351 1.1957701 1.1392701
000350 5b ec c8 3e 86 08 49 3f 59 b6 74 bf d3 f9 a5 3f
       0.39242825 0.7852863 -0.9559074 1.2966865
000360 d5 23 84 bf 0a c7 77 3e b7 67 0a be 17 4c be bf
       -1.0323435 0.24197021 -0.13516127 -1.4866971
000370 2e 65 84 3f ec a2 72 bf 5b c6 d5 3e 96 73 82 bf
       1.0343378 -0.9477985 0.41752896 -1.0191524
000380 26 3b 11 3f b6 31 b8 3e cc 6c 99 3f 51 3b d1 be
       0.5673088 0.35975426 1.1986327 -0.40865567
000390 aa 43 e3 bd 94 bb 80 bf f0 af 07 3e cf 5f 81 be
       -0.1109689 -1.0057244 0.13250709 -0.2526841
0003a0 2f 85 16 bf bf 05 69 be 68 07 cd bf 29 b9 e4 be
       -0.5879697 -0.22756098 -1.6017885 -0.44672516
0003b0 19 06 1f bf 8a 88 13 bf 52 50 3d 3e 2f 64 b3 3d
       -0.6211868 -0.5763022 0.18487671 0.08759343
0003c0 36 d9 f0 bf ff 86 8d 3e a2 5e 22 3f 36 5e 92 3f
       -1.8816288 0.27642056 0.6342565 1.1435001
0003d0 e3 f1 03 be 0f 09 2d 3f 72 35 f8 3f 3a cf ba bf
       -0.12885241 0.6759195 1.939131 -1.459449
0003e0 39 36 ea 3f 05 eb 1a bf ed 8d dd bd 18 6a 04 c0
       1.8297797 -0.6051486 -0.10818086 -2.0689754
0003f0 a9 3d d3 bf 68 36 aa bf e9 39 63 3f 1c 64 65 3e
       -1.6503192 -1.3297853 0.8876024 0.2240147

weight f4 [64, 64]
000000 5f 25 38 bd 9e 00 27 be e0 52 24 bd ac 6f b2 3d
       -0.044957515 -0.16308829 -0.0401181 0.08712706
000010 f3 d4 f7 3d ad 67 86 3d 55 52 9d 3d c6 03 19 3e
       0.12101164 0.06562743 0.07681719 0.14942846
000020 04 07 8e 3c cf 59 d3 3c 21 1c 04 3d d4 7e a5 bc
       0.01733733 0.02579966 0.03225339 -0.020202078
000030 a9 c4 06 3e 55 64 2c 3d d6 3b 02 bd 05 8e ec bc
       0.13160957 0.04208787 -0.031795345 -0.028876314
000040 94 d3 ea bd 64 bc ad 3d d4 b5 d4 bd b7 ea de bd
       -0.114661366 0.08483198 -0.103862435 -0.10884612
000050 b1 f1 d9 bc 2b 7e 6e bd a0 35 de bd 3b be da bc
       -0.026604505 -0.058225792 -0.10850072 -0.026702037
000060 64 00 87 bd 69 96 b8 bd c4 5e ad bd a9 ce c7 3b
       -0.065918714 -0.090130635 -0.08465341 0.006097634
000070 51 53 99 bd ea dd 24 3e 95 87 df 3d 38 3d ee bc
       -0.074865945 0.16100278 0.10914532 -0.029081926
000080 57 fd 43 3d b7 41 f6 3d 36 76 d0 bc bb 6b a5 3d
       0.047849026 0.12024253 -0.025446992 0.080771886
000090 29 fa ed 3d 0b 83 6a bd 73 fc 12 3d 3e 0d 84 bc
       0.1161998 -0.05725388 0.035885286 -0.016119596
0000a0 0d da 1f 3e 73 f4 f1 bc 0b a1 f9 3d 70 e2 ec bc
       0.15610524 -0.029535508 0.1218892 -0.028916568
0000b0 56 30 2f bd cc b2 11 3e da bf 35 bd 85 20 97 bd
       -0.042770706 0.14228362 -0.044372417 -0.073792495
0000c0 67 39 e9 3d f9 b6 80 bd ae b3 4a bd e6 46 0c be
       0.11387902 -0.06284899 -0.049487762 -0.1369892
0000d0 c2 3f 8e 3d 90 9d 2e bd 9b aa 07 bd 4b 37 2f 3d
       0.069457546 -0.042630732 -0.033121686 0.04277734
0000e0 f1 92 01 be 30 f4 92 bd d4 c0 3e bd 69 93 b4 3d
       -0.1265371 -0.07175481 -0.046570614 0.08817179
0000f0 6a 57 89 bc 8c 43 e3 bd 62 8a c9 3c c0 52 99 bd
       -0.016765315 -0.11096868 0.024602119 -0.074864864
000100 94 64 88 bd 71 f9 be bd 89 fe 17 bd 5d 4f 4a 3d
       -0.06659809 -0.09324921 -0.037107978 0.049392093
000110 62 c4 8e bc a2 d0 04 be 2b a5 1f 3d a2 dc 81 bd
       -0.017427627 -0.12970212 0.038975876 -0.063409105
000120 a3 0d a9 3d 85 6a fa bc a2 34 a8 3d db 9f b3 bd
       0.08254554 -0.03056837 0.08213164 -0.087707244
000130 b1 2c 73 bd d9 cf bb bc 2c 09 a0 bd a7 00 c1 bc
       -0.059368793 -0.022926258 -0.078142494 -0.023559881
000140 09 95 bb bd 39 8d a8 bc aa 28 60 bd d3 02 b0 3d
       -0.091592856 -0.020575153 -0.05472628 0.08594289
000150 98 b3 fa 3d 7f 42 4e 3d 09 07 39 3d f6 f5 7e 3d
       0.12241286 0.050356384 0.045172725 0.062246285
000160 71 48 c5 bd fe 96 9b bc 74 4e 36 bd c6 3e a1 bd
       -0.09632958 -0.018992897 -0.044508412 -0.07873301
000170 91 06 a1 3d 8a 82 ce 3c 72 4d b3 3d b8 36 0f 3c
       0.078625806 0.02520873 0.08755006 0.008741073
000180 f0 1c f8 3d 9f 7c 4b 3d 4f 0d 4d bd ea 01 88 3d
       0.121148944 0.049679395 -0.05006152 0.0664099
000190 60 5b 35 bd 84 e6 bc bd 3f 50 b0 3d f2 f0 1d 3e
       -0.044276595 -0.09223655 0.08609056 0.15423945
0001a0 13 86 16 bd 2b b9 1e bd 0e ae b4 bd 91 56 f5 bb
       -0.036748957 -0.03875081 -0.08822261 -0.007487126
0001b0 01 4d 82 bc 61 45 c2 bd ae 46 4e 3d e2 c0 aa bd
       -0.015905859 -0.09485889 0.050360374 -0.08337571
0001c0 5d a2 89 3d 88 dc b1 bc b1 ed 9e bc 93 61 df 3c
       0.067204215 -0.021711603 -0.01940045 0.027268207
0001d0 b3 51 36 3d 8e 8b 87 bc cf 47 91 bd ef 67 0f bc
       0.04451151 -0.016546037 -0.070937745 -0.008752807
0001e0 46 5d d7 3d b4 ac e5 3d 08 17 98 bd aa 4a a4 3d
       0.10515837 0.11214581 -0.07426268 0.080220535
0001f0 1e 0b 5b 3c 05 fd 82 3c f7 60 20 3d dc 4e ef ba
       0.01336935 0.01598979 0.039154973 -0.0018257755
000200 19 3a 90 bd 6f 81 58 3d b0 ef a8 bb b2 72 59 3b
       -0.07042331 0.052857812 -0.005155526 0.0033179936
000210 91 ed 16 bd fe 4a 01 bd 2d 97 a8 bd 1c ab 88 3b
       -0.036847655 -0.03156566 -0.082319595 0.0041707885
000220 a6 8d 00 3e 3e c0 f5 bd 59 8d 04 3e 09 13 71 bd
       0.12554035 -0.11999558 0.12944545 -0.058856044
000230 c1 ad e3 3d 9a 41 89 3d c3 21 a4 3d de be cb bc
       0.11117125 0.06701966 0.08014252 -0.024871286
000240 e7 43 99 bd 38 77 c7 bd 42 ee a2 bd c2 50 cd bd
       -0.074836545 -0.09739536 -0.079556 -0.10025169
000250 df 99 d8 3c e6 ba ac bd 93 46 63 bd c6 14 15 3d
       0.026440559 -0.084340855 -0.055487227 0.036396764
000260 9c be bd bd ff 58 02 3e 05 d3 81 3c d4 45 d6 bb
       -0.092648715 0.12729262 0.015847692 -0.006539086
000270 a9 af a1 bb 47 d5 b1 bd fd 2b 25 bd 1b 39 f9 3b
       -0.0049342704 -0.086832576 -0.040325154 0.0076056845
000280 12 86 8a 3c d4 6a ec bd 8d 76 92 3d 0c 5a a1 3d
       0.016909633 -0.11543813 0.07151518 0.07878503
000290 77 7f ef 3d 38 8d b5 3b 3c d0 bb bc 43 ab 06 3d
       0.11694234 0.005540516 -0.022926442 0.03287817
0002a0 e9 de fa bc ad ca 45 3d 22 83 b0 bc 97 56 9b bd
       -0.03062387 0.04828899 -0.021546904 -0.07584875
0002b0 cf 94 17 3d c9 39 b5 bd 1b 72 e8 bd b5 f2 8e 3a
       0.03700715 -0.08848912 -0.11349889 0.0010906073
0002c0 64 07 52 3c 5a 7a 58 3d 25 a2 3a bd 10 e6 01 3e
       0.012819145 0.05285106 -0.04556479 0.12685418
0002d0 87 32 aa bd f0 34 c5 bc c1 30 e7 3d 51 09 2a bd
       -0.083104186 -0.024073094 0.11288596 -0.04151279
0002e0 9c 1a 62 3d 8c 96 89 3d 13 27 00 3d 7c 06 9e 3b
       0.055201158 0.06718168 0.031287264 0.0048225503
0002f0 6b 3b b4 3d 29 fd d7 bd e5 61 b3 bd 3d 2e bd bc
       0.088003956 -0.10546333 -0.08758906 -0.023093337
000300 65 fa 44 bd 58 5e 1c bc 5f de 38 3d 6b 7e 98 bc
       -0.048090357 -0.009543978 0.045133945 -0.018614968
000310 83 4a 48 bd 6e 89 2f 3c 45 bc 0f be e5 ed ef 3d
       -0.048899185 0.010713918 -0.14036663 0.11715297
000320 85 04 a3 bd ee 3e 0c 3d 73 f0 db bd 88 1e 46 bd
       -0.079598464 0.034239702 -0.107392214 -0.04836896
000330 82 77 bb bd 23 c7 67 bd cd b6 6a bd b9 74 ab 3d
       -0.09153654 -0.056586396 -0.05730324 0.083718725
000340 0d f1 fa 3d 36 cf c2 bd 41 6a 8e 3d 15 2d f5 3d
       0.12253008 -0.095121786 0.0695386 0.11971489
000350 0b 93 89 bc 79 cc f0 3d 55 bc b2 3d 44 a3 1a bd
       -0.016793748 0.1175775 0.08727328 -0.03775336
000360 34 02 10 be eb 8a f5 3d 55 d5 a1 3d 40 ee c0 3d
       -0.1406334 0.11989387 0.07902018 0.094204426
000370 5c 40 11 bd b2 16 82 3d 93 c5 d3 3d 0c 8c 28 bd
       -0.03546177 0.06351985 0.10340419 -0.041149184
000380 15 fc 36 bc 78 c8 08 be a8 58 58 be 0f 79 00 bc
       -0.0111684995 -0.13357723 -0.2112757 -0.007841363
000390 ad 5d b0 bd 30 7c b7 bd 4e d9 90 bd 6c c1 e8 bd
       -0.08611617 -0.08959234 -0.070726976 -0.11365017
0003a0 cf c7 b6 3c dd 81 59 bb 90 29 44 bd 15 8e f3 3d
       0.022312073 -0.0033188977 -0.0478912 0.11892334
0003b0 a2 f7 ad 3d 24 71 07 bd 4a 70 95 3d 25 7b 76 bd
       0.08494498 -0.033066884 0.07296808 -0.060176034
0003c0 25 1c a6 3d b5 bd c5 bd 4d d6 ef 3c 3c 4d 61 3d
       0.08110837 -0.09655324 0.029276991 0.055005297
0003d0 06 db 89 3c db 96 ac bd c9 54 17 bd 9a 61 86 3c
       0.016828071 -0.08427211 -0.03694609 0.016403962
0003e0 d2 d5 59 3d d3 3e 4f b9 17 16 97 3d ad 26 ee 3c
       0.05318243 -0.00019764462 0.0737726 0.029071176
0003f0 1d c7 ff bb 52 37 ab bd b3 95 6f bd b1 af bd 3d
       -0.0078057186 -0.08360161 -0.058492374 0.09262026

weight f4 [64, 64]
000000 58 08 af bd 71 0e b9 3b 32 b8 b8 3c 88 23 05 3e
       -0.08546513 0.0056474735 0.022548769 0.13001835
000010 a4 6d 93 bd c2 65 3a be 3b e1 0d 3e 3b 58 a5 3c
       -0.07198647 -0.1820288 0.1385545 0.020183673
000020 83 8c ed 3c d9 fd d4 bc c3 24 de bb 17 89 e7 3d
       0.028997665 -0.02599995 -0.0067792847 0.11305445
000030 e0 44 80 3c 78 f9 8e bc 8e c3 be 3c 0b 76 90 3d
       0.015657842 -0.01745294 0.023286607 0.07053765
000040 de e9 7f bd 2a 80 a5 3d 59 6b 8f 3c c7 07 2b be
       -0.062478893 0.08081086 0.017507242 -0.16702186
000050 82 17 a1 bd ac 51 47 3d 4b 04 00 bd 4d 7a e5 3c
       -0.07865812 0.048661873 -0.031254094 0.02801242
000060 c4 c4 22 be 7b 29 15 3d bc 79 c3 3c 11 f6 23 be
       -0.15895373 0.036416512 0.023861758 -0.16011836
000070 16 e2 be 3d ec 4b 10 3e 06 8a 76 3b 0c bb 17 3d
       0.09320466 0.14091462 0.003761889 0.037043616
000080 49 f2 e1 3d cf e7 20 3e b2 e0 04 3c ee e2 1a 3c
       0.1103254 0.15713428 0.008110212 0.009453518
000090 7f 64 8c 3d 6c 35 b2 bd 66 66 92 3c e6 6a 00 3e
       0.068551056 -0.08701596 0.017871093 0.12540779
0000a0 de f9 62 3c 96 4c f9 3d ba d5 e1 bd 1a 57 9f bb
       0.013853518 0.12172811 -0.11027093 -0.0048626782
0000b0 d4 09 d2 3c e9 bb 09 be 48 d9 17 3d 39 30 02 bd
       0.025639452 -0.13450588 0.03707245 -0.03178427
0000c0 72 4b 12 3e f5 f9 63 3c 23 8b f5 3d b1 c6 ae bc
       0.14286593 0.013914575 0.11989429 -0.021334978
0000d0 cc 5e e8 3c 03 61 ca bc fd fc f8 bb b9 d2 6b bd
       0.028365515 -0.024704462 -0.007598518 -0.057574008
0000e0 21 91 a4 3d 69 5f eb b8 89 be 36 bd aa 02 3e 3d
       0.08035494 -0.00011223445 -0.044615302 0.04638926
0000f0 cb 0a 65 bd c1 48 18 be 58 29 ce 3d 97 ba 93 bd
       -0.055918496 -0.14871503 0.100664794 -0.072133236
000100 e1 4f 25 3d 8a fe 83 3d 48 4b da bd 1d 90 f3 ba
       0.04035938 0.06445034 -0.1065889 -0.0018582378
000110 29 28 04 be 03 29 d6 bd 0a 1d 09 3d b1 77 8c b9
       -0.12905945 -0.10457041 0.03347496 -0.00026792058
000120 06 67 d4 bd 3d 8d c9 3c c5 1d 93 bd 3b f7 b0 3c
       -0.10371213 0.02460348 -0.071834125 0.021602264
000130 1b 5e 35 3d 72 20 0d 3e 34 69 7f 3d ba c7 80 3d
       0.0442792 0.13781908 0.06235619 0.06288095
000140 eb 5b 3d bc 9c e4 13 be ec 41 92 3b e5 63 8e bc
       -0.0115575595 -0.14442676 0.004463425 -0.017381618
000150 73 fc 12 bd c5 3a 72 bc 95 bb 61 3d 03 18 7c bd
       -0.035885286 -0.01478452 0.055110533 -0.061546337
000160 a2 9f f5 bc e2 a8 bc 3d ac f4 0b 3e 7f 54 01 be
       -0.029983345 0.09211899 0.13667554 -0.12629889
000170 ee f4 db bc e0 05 97 3b 92 dd 0d 3d 83 6d d5 3d
       -0.02685019 0.0046088547 0.034635134 0.10421278
000180 c3 56 97 bd 3c 3f 92 3d 95 01 d0 3c 23 15 0a 3e
       -0.07389595 0.07140967 0.02539138 0.13484626
000190 c1 d0 9e bd 9a a4 0c bd dd e0 9f 3a 31 81 b0 3b
       -0.077546604 -0.034336664 0.0012197752 0.0053864946
0001a0 a7 89 b9 bc 9a 50 47 3c e1 b4 70 3e e0 9d 23 3d
       -0.022648646 0.012165213 0.235065 0.039945483
0001b0 4b a3 24 bd 36 42 09 bd d0 95 d3 3d c2 a5 64 3c
       -0.04019479 -0.03351041 0.10331309 0.013955535
0001c0 58 8c 21 be 52 29 16 3a 32 04 75 bd 87 7f 57 3e
       -0.15776193 0.0005728203 -0.059818454 0.21044742
0001d0 48 61 fa 3d a4 0c 3c bd 65 25 0a be 3a 06 69 3d
       0.12225586 -0.045910493 -0.13490827 0.056890704
0001e0 40 57 e1 bb 17 f1 53 bd bd b9 f7 bc 5a 92 cb 3d
       -0.006876856 -0.051743593 -0.030239934 0.09940024
0001f0 da 27 66 bd 26 18 0b 3e 7b 44 90 3d f1 8a 0c 3e
       -0.05619035 0.1358343 0.070443116 0.13724877
000200 45 a0 87 3a 37 59 f7 bc a5 89 6c 3d 3e 82 82 3d
       0.0010347447 -0.030193908 0.057748456 0.06372498
000210 61 6e 09 3e 5c 68 89 bc eb 9d bb bd 53 00 88 3a
       0.13421012 -0.016773395 -0.0916098 0.0010376073
000220 29 aa 85 bd 9d e1 6d 3d df 5c c5 bc 87 76 bb bd
       -0.06526596 0.05807649 -0.024092136 -0.09153467
000230 f9 cf 58 3e 34 b9 86 bd 00 98 ba bd 2e 90 15 be
       0.21173085 -0.065782934 -0.09111023 -0.14605781
000240 08 39 3b bc d8 30 28 bd 82 56 e8 3d 52 a5 f9 bd
       -0.0114271715 -0.041062206 0.11344625 -0.121897355
000250 aa 29 a6 3d 34 71 91 bd a8 8a ae 3d dd b0 75 bd
       0.081134155 -0.0710167 0.0852254 -0.059983123
000260 17 5d 85 3d d8 28 4a 3e 0b 9a a3 bd 73 52 91 3d
       0.06511896 0.19742143 -0.07988366 0.07095804
000270 dd 65 51 bd 53 e2 db bc f0 fe 6c bd 7d fe 19 be
       -0.051122535 -0.026841318 -0.057860315 -0.15038486
000280 cb a0 bb 3d e9 44 80 3d 91 6b db 3d a3 79 a9 bd
       0.09161528 0.062631436 0.10713876 -0.082751535
000290 63 00 f2 bc 0d 31 62 3d a0 51 93 3d ff 8d b7 3d
       -0.0295412 0.05522256 0.07193303 0.089626305
0002a0 1e 7d 84 3d 78 81 21 3e 60 d4 47 3c 3c c9 ef bc
       0.06469177 0.15772045 0.01219663 -0.02927076
0002b0 57 d9 81 bd ee fd 0f 3c 70 d8 48 3e 70 d8 69 3d
       -0.063402824 0.008788569 0.19613814 0.057091177
0002c0 05 59 06 be f8 c0 31 bd b6 ab 22 bd ac ee 22 be
       -0.13119896 -0.04339692 -0.039714538 -0.15911359
0002d0 81 78 a9 bd d9 0b 91 bd 4a a4 a3 bd bf 3b 37 3b
       -0.082749374 -0.07082338 -0.0799032 0.0027959195
0002e0 1a 95 1f 3e c4 d5 05 bd 96 58 9b bb b6 bd 27 bd
       0.15584221 -0.032674566 -0.004740785 -0.040952407
0002f0 79 b6 d2 3d 03 54 85 bd 6b 1e 02 be 66 33 03 bd
       0.1028871 -0.065101646 -0.12706916 -0.03203144
000300 34 b6 cc 3d 40 a0 8a bd 79 71 2b 3e fb 79 a9 3b
       0.0999569 -0.067688465 0.16742505 0.005172012
000310 b7 ab 8a bd 36 14 72 3d 9e e8 13 bd 27 ce c8 bc
       -0.06771033 0.059101306 -0.036110513 -0.024512364
000320 5c 40 ca bc f9 43 2f bd 66 e3 ca bd 97 6e a6 bd
       -0.024688892 -0.042789433 -0.09906654 -0.08126562
000330 fa 69 17 bd 13 ab e7 3c a6 e3 a1 bd ab e9 c8 3c
       -0.0369663 0.028279817 -0.079047486 0.024525484
000340 8b 2c ca 3d 6c 32 b2 3d e0 ad 80 bd 77 4b ea bc
       0.09871777 0.087010235 -0.06283164 -0.028600438
000350 ae b0 56 3d e0 a3 9d 3d 2e 8d 1e bd 62 89 ce bd
       0.05241459 0.07697272 -0.03870886 -0.100847974
000360 6e ae de 3d be e5 91 3d 77 a7 d3 bd 79 1c 28 bd
       0.108731136 0.07123898 -0.10334676 -0.04104278
000370 41 20 9f bc 0c 15 6d 3d 15 83 f3 3d 0e 36 2c be
       -0.01942456 0.0578814 0.11890236 -0.16817495
000380 a3 49 c3 bd bd 58 e8 3d 25 d3 34 3d fc 22 b2 3d
       -0.095355295 0.113450505 0.044146676 0.08698079
000390 cc 25 ed bc d4 99 47 bd 1c 16 8e bc ea 86 ed bd
       -0.028948687 -0.048730686 -0.017344527 -0.115979984
0003a0 07 06 d1 bd 62 48 b5 ba fd e7 74 3d 50 62 f3 bb
       -0.10206228 -0.0013830776 0.059791554 -0.0074274912
0003b0 56 c3 e6 bc e2 91 f3 3d 6a ad e6 3d 6e e7 ac ba
       -0.028169315 0.11893059 0.11263545 -0.001319153
0003c0 97 d5 39 3c df bd a5 3d d7 89 42 3d d9 8d 86 3d
       0.011342428 0.08092856 0.047494736 0.06570024
0003d0 47 d3 df 3d 17 d1 83 be 8d ea c2 3d 1a 27 13 bd
       0.1092897 -0.2574546 0.09517393 -0.035925962
0003e0 e5 5e ff 3c 7b dd 4a 3d 9d c1 09 be b5 33 0d bc
       0.031173179 0.049527626 -0.13452764 -0.008618285
0003f0 2a d0 1a bd 4d 9c 9a ba 44 ca c3 3c a9 c0 8b 3d
       -0.037796177 -0.0011795849 0.023900159 0.068238564

weight f4 [64, 64]
000000 28 1a f8 3d b8 30 e3 3d 77 5a 04 3d 91 a9 ef bd
       0.12114364 0.11093277 0.032312836 -0.11702264
000010 40 ad b5 3d ad c8 5d bd e9 eb 8a bc 9d ea 01 3e
       0.088709354 -0.054146457 -0.016958194 0.12687154
000020 b9 40 6c 3c a4 7d 20 be c1 8f 4a bc c8 3d ff 3c
       0.014419728 -0.15672928 -0.012363375 0.03115739
000030 ff f2 4f bd d3 df c0 bd 15 f7 12 be 00 c2 fa ba
       -0.05076885 -0.09417691 -0.14352067 -0.0019131303
000040 50 7e 62 3d f2 ec ba 3d 68 6f d2 3d aa fe 25 3d
       0.055296242 0.09127225 0.10275155 0.04052607
000050 af 5a 1b bc 79 cc ac bd 93 52 ae bc 4b 92 c1 bc
       -0.00948207 -0.084374376 -0.021279609 -0.023629328
000060 8e ff 8b 3b 52 3c 09 3e 4f 2c 88 bd 18 f3 cc 3c
       0.004272408 0.13401917 -0.06649076 0.02501826
000070 f4 96 e5 3a 4a 6b fa bd 14 a6 bb bc ae 5e 7c bd
       0.0017516301 -0.12227495 -0.02290634 -0.06161373
000080 e9 7c 6e 3c bb 3c c5 bd 96 52 53 3d 32 76 0f 3e
       0.014556148 -0.09630724 0.051592432 0.14009932
000090 02 7f 99 3d 78 4c 93 3c ff 40 80 bd b8 de a7 bd
       0.07494928 0.0179808 -0.06262397 -0.08196777
0000a0 22 b2 42 3c 94 81 ff 3d bd 1f 39 bd c4 33 e0 bd
       0.0118832905 0.12475887 -0.045196284 -0.109473735
0000b0 ef 9f 10 be 22 25 1b 3e e1 d8 eb 3d b2 00 bf bc
       -0.1412351 0.15150884 0.11515976 -0.023315761
0000c0 f2 8b 68 bd 51 00 db 3d 9c 80 5c bd 12 80 fa 3d
       -0.056774087 0.1069342 -0.05383359 0.12231459
0000d0 c4 83 17 3d f1 24 ce 3d 0f 80 81 3b a3 da 0e 3d
       0.036990896 0.1006564 0.0039520334 0.034876477
0000e0 9d 38 79 bd b0 48 b3 3c b7 01 f9 3d ae db 0f 3e
       -0.060845006 0.021885246 0.1215853 0.14048645
0000f0 ad 52 14 3e aa cb da bc b3 56 96 bd 6c ad c4 bd
       0.14484663 -0.026708443 -0.07340755 -0.0960339
000100 eb 06 ee 3d d3 7e 6f bd a8 27 6b bd ae 45 18 bd
       0.11622413 -0.05847056 -0.057410866 -0.037175827
000110 88 7d 00 be b6 bf bf 3d 9b 94 18 3c fd 9b c0 3d
       -0.12547886 0.09362738 0.009312774 0.094047524
000120 61 37 ec 3d 77 be 3c 3e 67 52 30 be 74 8f c1 bd
       0.11534 0.18432032 -0.17218934 -0.0945119
000130 58 71 b9 bc 46 6e 83 bc 5b 8e 42 3d 01 d6 52 3d
       -0.022637054 -0.016043793 0.047499042 0.05147362
000140 16 03 a7 3d 47 e6 00 3e 07 72 80 3d 1e 5e c4 bd
       0.081548855 0.12587844 0.06271749 -0.09588264
000150 bf 1d 0e 3d 36 2f 02 be 45 89 12 3d 28 dc 57 bd
       0.034696337 -0.12713322 0.03577544 -0.05270019
000160 db 86 a1 bd c3 87 0e 3d dc af c8 bc 06 83 97 bc
       -0.0788705 0.03479744 -0.024497919 -0.018495094
000170 e8 e7 ba 3d 1e 40 cd bc 9f 6b 38 bc 1c 4a cc bd
       0.09126264 -0.025054988 -0.011256128 -0.09975073
000180 53 de c0 bd 41 17 31 3c 3e 1c b4 3d 74 f5 e4 3c
       -0.09417405 0.010808767 0.08794449 0.027949072
000190 d4 a6 7e bc bf 7a 53 3d cc 29 6f bc 69 95 2a bd
       -0.015542705 0.05163073 -0.0145973675 -0.041646395
0001a0 3f 1f 3c bd 68 66 84 bb 1e c8 a3 bd e8 65 d5 bc
       -0.045928236 -0.004040528 -0.07997154 -0.02604957
0001b0 53 59 c4 3d 09 bb 97 3d 53 c6 6a bd cb 70 46 3d
       0.0958735 0.07408721 -0.057318043 0.04844741
0001c0 b7 66 a7 bc db af 3e bc 40 7d 1b 3d 9a 81 f3 bd
       -0.02043472 -0.011638607 0.037961245 -0.11889954
0001d0 4f 35 93 3c 11 a7 16 3c e4 59 ec bc bd 20 97 3d
       0.017969755 0.009195105 -0.028851457 0.07379291
0001e0 1b be f1 3d 24 01 38 bd b0 57 03 bd 48 13 c5 3c
       0.11803838 -0.044922963 -0.032066047 0.024057046
0001f0 ab 2f 3f 3d 01 cf 9a 3d 07 34 0e bc 04 a9 a8 bd
       0.04667632 0.07559014 -0.0086793965 -0.08235362
000200 45 2c 82 3d f2 97 ff bb 54 dc 13 be b9 eb fb 3d
       0.063561 -0.0078000957 -0.14439517 0.1230082
000210 4e e3 23 be 49 f5 20 3d 02 35 2c bb 7a b8 08 be
       -0.16004679 0.039296422 -0.0026276712 -0.13351622
000220 c8 3e a9 3d 30 45 90 3c 54 66 86 3d 14 e6 d7 3d
       0.08263928 0.017611116 0.06562486 0.10541931
000230 ef 2a 6e 3d ab da 11 be eb bd 45 bd a5 53 30 3e
       0.058146413 -0.14243571 -0.048276823 0.17219408
000240 a6 54 c8 bd fb 26 44 bd 6d 4b 06 be ed 68 b4 3d
       -0.097817704 -0.047888737 -0.1311471 0.088090755
000250 02 e4 79 bc 2d 2e 71 bd ba ca e4 bd e6 7d fb 3c
       -0.015252115 -0.058881927 -0.111714795 0.030699681
000260 4f 1f dc bd a0 64 9a 3d 61 8d 30 3d 6e e9 ab 3c
       -0.10748159 0.07538724 0.04310358 0.020985331
000270 3c 86 20 3d 30 86 09 bd 9e b4 22 3e 87 ce 84 bc
       0.039190516 -0.033575237 0.15889212 -0.016211761
000280 c4 0b fb 3d 78 86 bf bd 94 b4 d6 3d 99 67 bf 3d
       0.122581035 -0.0935182 0.10483661 0.093459316
000290 c0 3a 05 bc 56 c8 37 3c ac fd 36 3c e5 22 41 bd
       -0.008131683 0.011217197 0.0111688785 -0.04715242
0002a0 70 32 f7 3c d5 49 7c 3d c3 f1 b2 bc a8 7c 8f 3d
       0.030175418 0.06159385 -0.021843797 0.07006198
0002b0 b5 48 bb 3d b6 51 16 3a 3d ac 2b 3d 08 3c 16 bd
       0.09144727 0.0005734222 0.041912306 -0.036678344
0002c0 8f df 1c bc 55 8e 2c 3d 26 d5 83 ba 80 eb 83 3d
       -0.009574785 0.042127926 -0.001005803 0.064414024
0002d0 95 85 29 be b6 57 fc ba 9e 7a bd b9 94 7c f0 bd
       -0.16554864 -0.0019252214 -0.00036140246 -0.117425114
0002e0 70 56 0f 3e 48 2e 93 3d 91 75 d8 bd 2e 8c e7 3c
       0.13997817 0.07186562 -0.10569299 0.028265085
0002f0 89 db 28 bd f0 96 9c bd 30 4b d1 3d 93 64 af 3c
       -0.04122499 -0.076459765 0.10219419 0.021410262
000300 06 9b 84 3c 00 d7 a8 3d cb c2 8e 3d fe a5 35 3d
       0.016187202 0.08244133 0.069707476 0.044347756
000310 9b 47 fd bd 55 e8 60 3d 52 36 50 3e 2b 9d d6 3d
       -0.12367173 0.05490907 0.20333222 0.10479196
000320 25 70 19 3e 4d e6 98 3c 7a 8c 3d 3c e4 af 00 be
       0.14984186 0.018664503 0.011569137 -0.12567097
000330 00 27 e1 bc 9c df cc 3d 94 5e 01 3d 86 ee e4 3d
       -0.027484417 0.100035876 0.031584337 0.11178307
000340 11 79 83 bd cf 31 f0 bd 2c 9d a9 bc 61 b2 21 3c
       -0.06419576 -0.1172825 -0.020704828 0.009869189
000350 b8 83 02 3e 53 a3 4a 3d 18 9d e0 3d cb c8 09 bd
       0.12745559 0.049472164 0.10967463 -0.033638757
000360 99 d0 f4 3d 9a c0 3a bd 13 91 9b bd bb a2 8b 3d
       0.11953849 -0.045593835 -0.0759603 0.06818148
000370 1d 20 36 be 4e 39 8d bd 12 a2 b3 bd b3 b2 35 be
       -0.17785688 -0.068956956 -0.08771147 -0.1774395
000380 7a 7d 25 3d 54 b5 ad bd 26 44 7f bd 7f e8 8f bd
       0.040402867 -0.08481851 -0.06232085 -0.07026767
000390 03 dc c1 bd 80 39 90 3d e7 67 8c 3d 58 9d 04 bd
       -0.09465792 0.07042217 0.06855755 -0.032376617
0003a0 90 5f 4d 3d 8b 44 3b 3a 4e d6 31 3e 1b 04 8e 3c
       0.050139964 0.00071436976 0.17366907 0.017335942
0003b0 12 3d 56 3d 74 e3 22 3e c2 0f 33 3e e4 fa ac 3d
       0.052304335 0.15907079 0.1748648 0.08446291
0003c0 81 55 0b 3d 49 62 45 3b 0a 4c 98 bd fd 6f 02 be
       0.03401709 0.0030118397 -0.07436378 -0.12738033
0003d0 6a 79 e6 3d 4e ca 6e bd fa db f0 bc e3 41 62 3d
       0.11253627 -0.0582984 -0.029401768 0.055238616
0003e0 82 8d 1f be 49 cb 23 bd b3 90 54 bd 16 94 de 3d
       -0.15581325 -0.03998879 -0.05189581 0.10868089
0003f0 76 ec 6a 3d 39 92 73 bb ab 63 08 3e 44 be 7f 3d
       0.057354413 -0.0037166013 0.1331927 0.06243731

in_proj_weight f4 [192, 64]
000000 27 57 bd 3d c4 fe 72 3e 56 0f 4a 3d 3b 40 2b be
       0.092451386 0.23729998 0.04933103 -0.1672372
000010 d2 24 d6 bc 05 35 ca 3d f7 a7 2e be 73 78 8a bd
       -0.026140604 0.09873394 -0.17056261 -0.06761255
000020 cd 33 84 3e 13 b9 ab bc 47 7b 3f 3e 2e de a5 3d
       0.2582077 -0.020962274 0.1869937 0.08099018
000030 96 06 d4 3d 57 7d 0c 3e 1e f8 6c be 49 c0 ff 3d
       0.10352819 0.13719688 -0.23141524 0.12487847
000040 48 81 a1 be d4 b5 23 be 43 2c 3d be 9f a3 b4 ba
       -0.31543946 -0.1598733 -0.18473916 -0.0013781673
000050 87 58 d0 3d 2a 29 02 3e 30 c1 fe bd 6a bc 8b 3e
       0.10173135 0.12711015 -0.12439191 0.27292186
000060 96 92 ed bd 3e 4b 45 3e fd e0 26 3e 63 9b 42 3e
       -0.11600225 0.19266984 0.16296764 0.19004588
000070 6d 73 6b bd b1 24 61 bd 9c 90 5b bd 08 76 88 bd
       -0.057483125 -0.054966632 -0.053604707 -0.06663138
000080 47 c6 e5 bd 0e c8 12 3e b3 7f 84 be f2 9e e2 3c
       -0.11219459 0.14334127 -0.25878677 0.027663682
000090 f7 20 45 bd a8 5a 35 be 35 e0 11 3e 9b 49 d5 bd
       -0.04812714 -0.17710364 0.14245684 -0.1041443
0000a0 a7 ab ec 3d 40 f8 29 bd 58 2e 1b be 07 78 74 bd
       0.115561776 -0.041496515 -0.15154397 -0.05968478
0000b0 6b e9 a3 3d 8b 9d d9 3d b2 76 92 bd cd b3 b2 3d
       0.08003505 0.10625752 -0.071515456 0.087257005
0000c0 0b 01 e1 bd d9 b6 14 3e 96 d7 78 3e 70 0a db 3d
       -0.10986527 0.14522876 0.2430099 0.1069535
0000d0 c3 07 31 be 84 54 1f 3e 66 79 a2 bc 7c 59 2a 3e
       -0.17288117 0.15559584 -0.019833278 0.16635698
0000e0 24 39 77 be 47 f8 a1 3d 59 b8 2e be 66 c0 ea 3d
       -0.24142891 0.07908683 -0.1706251 0.11462478
0000f0 41 3b 71 be a7 ed 44 be c5 f3 2c 3e f4 5b a7 be
       -0.2355776 -0.19231282 0.16889866 -0.32687342
000100 80 69 00 3d 1d b2 7b be f9 45 82 3d a1 0a 17 3e
       0.031350613 -0.24579664 0.063610025 0.14750148
000110 0e 79 d2 bd f1 8f 8a bd 0f 76 14 be 8f 84 0f 3e
       -0.102769956 -0.06765736 -0.14498161 0.14015411
000120 e4 44 93 bc 89 32 b5 bd e8 9d 53 bd f9 d3 01 3e
       -0.017977186 -0.088475294 -0.051664263 0.12678517
000130 f6 eb 44 be 46 28 bd bd 13 f4 89 3d cc 28 70 be
       -0.19230637 -0.09236197 0.067360066 -0.23453063
000140 fb ee 22 3c f2 03 6a 3e d0 cd 95 3e 55 53 64 be
       0.009944673 0.22853068 0.29258585 -0.22297414
000150 e1 5e 57 3d 06 69 31 be b8 9c 49 be 42 26 33 be
       0.052580718 -0.1732522 -0.1968869 -0.17495063
000160 b9 f1 c1 ba ef d4 d0 3d 13 25 a0 bd c9 b0 a5 3d
       -0.001479677 0.10196864 -0.07819571 0.0809036
000170 c9 fa 12 3e 77 ce 21 be 1b 38 0f 3e bd 94 7b bd
       0.1435348 -0.15801416 0.13986246 -0.061421145
000180 50 d8 83 3c 33 ac ae 3e 87 b4 66 3d b4 c0 3e bd
       0.016094357 0.34115753 0.056324508 -0.046570495
000190 88 aa e4 bd dd 3b 46 3e bc 40 9d bc 15 ff 37 3e
       -0.11165339 0.19358774 -0.019195907 0.179684
0001a0 07 d1 10 be 8b 90 93 bd 44 ff ec 3d 7c 2d 18 3e
       -0.14142238 -0.07205304 0.115721256 0.14861101
0001b0 5d e1 86 3d 2e 49 8b bc db d0 88 3d 99 65 d2 bd
       0.065859534 -0.017002668 0.06680461 -0.102732845
0001c0 4e dc 39 be 62 1f 00 be 9b c8 d1 3c cb 1a 1d be
       -0.18150446 -0.12511972 0.025608351 -0.15342252
0001d0 86 85 73 be f9 c5 ab 3d e6 58 3b bd 41 6a a6 3e
       -0.23781404 0.0838737 -0.045739077 0.3250294
0001e0 33 2e 92 bc 45 c2 23 3e 6e f2 79 be b9 ad 92 ba
       -0.017844295 0.15992077 -0.24408886 -0.0011190689
0001f0 a7 17 d0 bd 59 6e 80 be a7 b6 62 3d 78 ec 45 be
       -0.10160761 -0.2508419 0.055349972 -0.19328487
000200 51 d3 36 be be 72 43 bd 18 9c c7 bd fe 01 0e bc
       -0.17854048 -0.04771685 -0.097465694 -0.008667467
000210 0c da c2 3c 93 17 1b bd 35 31 32 be 53 21 ad bd
       0.023785613 -0.03786428 -0.17401583 -0.08453622
000220 d2 d2 d1 bd 0d 7e f8 3d e5 26 4f 3e fa cd 30 39
       -0.10245289 0.12133417 0.20229681 0.000168614
000230 00 e8 7e be 4b cb 0e be e2 78 02 3c 4e fc 3e 3e
       -0.24893188 -0.13944738 0.007963391 0.18650934
000240 02 f1 97 bb db 26 c9 bc 4d 39 90 bd db 6d 65 bd
       -0.0046368847 -0.02455466 -0.07042179 -0.05601297
000250 b9 69 44 be 1c 33 da bd 85 0f b7 bd 4a 89 42 3a
       -0.19180955 -0.106542796 -0.08938507 0.00074209704
000260 88 57 12 3e ec d9 41 3d 0a 3b fc bb 37 18 5c 3d
       0.14291203 0.047326967 -0.0076974677 0.05373403
000270 8d 28 f1 bd af 8e 40 3e ff 37 76 bd c7 d8 2d 3d
       -0.117753126 0.1880443 -0.060111996 0.042443063
000280 37 cc 42 3e 38 55 25 3e 5c a0 3d 3e 1e 17 07 3e
       0.19023214 0.1614579 0.18518203 0.13192412
000290 ac 22 57 3d d5 e8 38 3e ae ef 3a bd 7f 7b fa 3c
       0.0525233 0.18057568 -0.045638733 0.030576466
0002a0 02 18 e5 bd ba f4 a2 bd 34 59 df bd 22 00 b3 3d
       -0.1118622 -0.07956834 -0.10905686 0.0874026
0002b0 9a 3e 1a be 85 c8 60 3e 1e 98 dd bd 42 5b 50 bd
       -0.15062943 0.21951492 -0.1082003 -0.05086828
0002c0 99 be 8e 3d 3b c3 9b 3d 57 95 de bc 1f 90 12 be
       0.06969947 0.07605597 -0.02717082 -0.1431279
0002d0 e6 34 31 3d 7f 09 a1 3d 9b cd de 3d 39 e7 6a bd
       0.04326334 0.07863139 0.1087906 -0.057349417
0002e0 f5 bc 81 bd 7f 82 08 3e cb 70 01 be cc 0a 7a bd
       -0.06334869 0.1333103 -0.12640683 -0.061045453
0002f0 e1 6f 15 be f9 de 38 3e 2e cb 1c 3e 96 05 e6 bc
       -0.1459346 0.18053807 0.15311882 -0.028078835
000300 25 b9 15 be b5 20 67 be 1b 2d c5 bd cf 02 06 3e
       -0.14621408 -0.2257107 -0.09627744 0.13087009
000310 ce a1 3a 3d 02 6b 83 3e 93 6a 83 be 65 07 e9 3d
       0.045564465 0.25667578 -0.25667247 0.113783635
000320 ce c4 3c 3e 2f 65 44 3d 90 e2 5b 3e 8d 7c b8 bd
       0.1843445 0.04794806 0.21473145 -0.09008131
000330 d9 76 5e bd f7 9c 82 3d 82 94 cf 3d 78 8b 4c 3e
       -0.05431256 0.06377595 0.101357475 0.19975078
000340 85 39 88 be cf b5 5e be 74 f0 93 bd c2 25 23 3c
       -0.26606384 -0.21749042 -0.07223597 0.009957733
000350 4d fc 4f 3e ec 23 43 bd 8b 50 07 3d 9f 21 1f 3e
       0.20311089 -0.04764168 0.033035796 0.15540169
000360 f8 80 30 be 35 4f 90 bc 0b 5f 7d 3d 72 60 18 3e
       -0.17236698 -0.017615894 0.06185822 0.14880541
000370 0d c3 4b bb 7c 8a 88 3e 7e 5e a7 3c a1 43 65 be
       -0.00310916 0.26668155 0.0204308 -0.2238908
000380 48 45 0e 3c 39 af a5 3c 7f ad 66 be bc 75 ff 3d
       0.00868351 0.020225154 -0.22527121 0.12473628
000390 b2 18 67 bd b4 1d 5b 3e 12 27 e7 bc fb e8 7e be
       -0.056420036 0.2139805 -0.028216872 -0.24893562
0003a0 0f a9 fc bd 2d 90 36 3d 0e ac 57 3e cd f6 ba 3e
       -0.12336933 0.04457109 0.21061727 0.3651642
0003b0 eb f8 21 3e 80 45 00 3e cc b2 82 3d 20 f5 74 bd
       0.15817611 0.12526512 0.06381759 -0.059804082
0003c0 15 0d 08 3e 21 b3 b8 bd f5 d3 18 be 33 55 1b 3e
       0.1328624 -0.09018541 -0.14924605 0.1516922
0003d0 c3 e5 4d be cf 5e 39 3d bb 0c c4 3d 2d 59 0a be
       -0.20107178 0.045256432 0.09572741 -0.1351058
0003e0 54 d2 1a 3e 90 0a 3d be 42 b7 0c 3d ec 28 cd be
       0.15119296 -0.1846106 0.034354456 -0.40070283
0003f0 64 cd 89 bd be 80 81 be b3 ca 0b be a2 12 d0 3c
       -0.06728628 -0.25293535 -0.13651542 0.02539951
